checkpoints/model.pt (torch, 415760 bytes, 27 tensors)

embed.weight f4 [16, 64]
0	0xbeed2f42	-0.46325117
1	0xbf2037b6	-0.6258501
2	0xbf888642	-1.0665972
3	0x3eea2ef4	0.45738947
4	0xbfa7af41	-1.3100358
5	0xbf9cc28d	-1.2246872
6	0xbef604a6	-0.4805042
7	0x3f767483	0.9627153
8	0xbebf8eb1	-0.37413552
9	0x3f956c6c	1.1673713
10	0xbddbd68a	-0.107342795
11	0xbfb96900	-1.4485168
12	0xbfb22d94	-1.3920159
13	0x3fe064fc	1.7530818
14	0x3f4a7fde	0.7910136
15	0x3e956b49	0.29183415
16	0xbf1659f3	-0.58731
17	0x3fcf3411	1.6187764
18	0x3e7b4610	0.24538445
19	0x3d014623	0.03156103
20	0x3f8e7bcd	1.1131531
21	0x3f18fd55	0.59761554
22	0x3f8e6406	1.1124275
23	0x3eac5a55	0.33662668
24	0xbdf04eae	-0.11733757
25	0x3de5d11f	0.11221527
26	0xc07351cc	-3.8018675
27	0x3e7392cc	0.23786467
28	0xbeaabe8e	-0.33348507
29	0x3fa13aac	1.259603
30	0x4005467f	2.0824277
31	0x3ee2bc75	0.44284406
32	0x3ea8023a	0.328142
33	0x3d97cf29	0.074125595
34	0x3d8f6057	0.07000797
35	0xbe37ff77	-0.17968546
36	0x3f2cbb2d	0.6747311
37	0x3f5ae1bf	0.8550071
38	0x3e8f4688	0.279835
39	0xbf867a30	-1.0506039
40	0xbf8c7930	-1.0974483
41	0xbe1c91ef	-0.15290044
42	0xbf8b80cc	-1.0898681
43	0x3dd5d5a1	0.10441137
44	0xbebeba68	-0.37251592
45	0xbfe0a0d0	-1.7549076
46	0xbdb15063	-0.08657911
47	0x3f347d90	0.70504093
48	0xbf93cc94	-1.1546807
49	0xbde96ff0	-0.113983035
50	0x3c09b9b5	0.008406092
51	0x3f7f731b	0.9978501
52	0x3c29063c	0.010316428
53	0xbf21edf5	-0.6325372
54	0xbf60376e	-0.8758458
55	0xbf9febcd	-1.2493836
56	0x3e4ea594	0.2018035
57	0x3e433a08	0.19065106
58	0xbf81c75f	-1.0138968
59	0xbf30f36a	-0.6912142
60	0x3ebdbd23	0.37058362
61	0x3f6bae2d	0.92062646
62	0xbe9ce8c1	-0.30646327
63	0x3dc7ddec	0.09759125
64	0x3f4b3ed3	0.7939274
65	0xbdbee219	-0.093204685
66	0xbf6f1578	-0.93392134
67	0xbf5df49b	-0.86701363
68	0x3f2696b6	0.65073717
69	0x3dfd1313	0.12357154
70	0x3fde3234	1.7359071
71	0xbee3ef04	-0.44518292
72	0xbf821ad4	-1.0164437
73	0xbf38e916	-0.7223066
74	0xbeefbd83	-0.46824273
75	0xbf949595	-1.1608149
76	0xbf87bd55	-1.0604655
77	0xbf27155d	-0.6526697
78	0x3fe06380	1.7530365
79	0xbff6bf5c	-1.9277148
80	0xbee71c2c	-0.4513868
81	0x3e994ef5	0.29943052
82	0xbf1472a8	-0.5798745
83	0xbf4e0104	-0.804703
84	0xc02dead5	-2.717458
85	0x3ec9fac7	0.3944914
86	0xbf18de76	-0.5971445
87	0x3e905ac8	0.2819426
88	0x3f1008fd	0.56263715
89	0x3fd98ec0	1.6996689
90	0x3f2aef9a	0.6677185
91	0x3f0878b8	0.533092
92	0x3e84b5d8	0.25919986
93	0xbc88a6fa	-0.016681183
94	0x3ea5cfe1	0.32385162
95	0xbe89ffe5	-0.26953045
96	0x3f93bfe2	1.1542933
97	0xbf8d6971	-1.1047803
98	0x3f8f2271	1.1182386
99	0xbfafd721	-1.3737527
100	0x3f06cc80	0.5265579
101	0xbf0d8b24	-0.55290437
102	0xbf87f562	-1.062176
103	0xbfa20e1a	-1.2660553
104	0xbfdce5c1	-1.7257615
105	0xbfb50116	-1.4140956
106	0x3faa1b7c	1.3289638
107	0xbf2ac792	-0.6671077
108	0xbf2df29c	-0.6794832
109	0x3f83036d	1.023542
110	0x3fb3e95b	1.405559
111	0x3fb1d8ff	1.3894347
112	0x3f54fbcb	0.83196706
113	0x3e4d6c3e	0.20060822
114	0xbc4545bd	-0.012040553
115	0x3f6e78e7	0.9315323
116	0x3faa7823	1.3317913
117	0x3f801ede	1.000942
118	0xbf9d3e53	-1.2284645
119	0x3e5e9adf	0.21738766
120	0x3f5b9426	0.8577293
121	0xbd9fe0e1	-0.07806564
122	0xbfd5b2dd	-1.669521
123	0x3da861c5	0.08221773
124	0xbe033c30	-0.12815928
125	0xbec1dd7b	-0.3786429
126	0xbe019ce5	-0.12657507
127	0x3f22230c	0.6333473
128	0x3fd17a0d	1.6365372
129	0xbcd550ac	-0.026039444
130	0xbe9455a5	-0.28971592
131	0xbe73fff1	-0.23828103
132	0x3f7b213a	0.98097575
133	0x3fbe5c8c	1.4871993
134	0x3faf124e	1.3677461
135	0x3efad599	0.48991087
136	0x3fc02fb7	1.5014561
137	0x3f9bfa95	1.2185847
138	0x3d20ce2b	0.039259117
139	0x3f16fcb4	0.58979344
140	0xbffe439c	-1.9864383
141	0xbee6d7b3	-0.4508644
142	0xbf0eff42	-0.5585824
143	0x3db7cd72	0.089747325
144	0x3edbd43e	0.42935365
145	0xbf1348af	-0.5753278
146	0xbff9eb0f	-1.9524859
147	0x3f88cdb4	1.0687776
148	0x3f425767	0.75914615
149	0xbf54c56b	-0.83113736
150	0xbf5a41b6	-0.85256517
151	0xbee72aa6	-0.45149726
152	0xbf0976ca	-0.5369688
153	0xbe24a8d4	-0.16080028
154	0xbe7e5662	-0.2483764
155	0xbd57bf3a	-0.052672602
156	0xbec460f6	-0.38355225
157	0x3decbecc	0.11559829
158	0x3e5cf02c	0.21575993
159	0x3f77c02a	0.96777594
160	0xbf0e6309	-0.55619866
161	0xbf81b402	-1.0133059
162	0xbe3307a2	-0.1748338
163	0xbecb10fe	-0.39661402
164	0xbed1a17c	-0.40943515
165	0x3f1dd0e7	0.61646885
166	0x3f2d5173	0.67702407
167	0xbe4881c5	-0.19580753
168	0x3e860cae	0.2618155
169	0xbf7bcb73	-0.98357314
170	0xbede0a35	-0.43367162
171	0x3fc75729	1.5573474
172	0x3f5d29e5	0.8639205
173	0xbf276ac6	-0.653973
174	0xbf08c15c	-0.53420043
175	0x3f69a7be	0.9127158
176	0xbca4eeb7	-0.02013336
177	0xbf8d23a2	-1.1026499
178	0xbf9e9309	-1.2388622
179	0xbf9dea79	-1.233718
180	0xbdfa4204	-0.12219623
181	0x3dc08776	0.09400837
182	0xbf4827f6	-0.78185976
183	0xbe29c655	-0.16579564
184	0x3fb3ce7b	1.4047388
185	0xbf6d5546	-0.9270824
186	0xbf0a0b91	-0.539239
187	0x3f8b79b2	1.0896513
188	0x3dd5d7d4	0.104415566
189	0xbf7beee4	-0.98411393
190	0xbf39dbe8	-0.72601175
191	0x3e22b317	0.1588863
192	0x4003e38f	2.060764
193	0x3d900414	0.07032028
194	0xbe9569ea	-0.2918237
195	0x3f693f07	0.911118
196	0x400e9c56	2.228292
197	0x3e3abac3	0.18235306
198	0x3f3943ca	0.7236906
199	0xbea3f1ba	-0.3202036
200	0xbe8374de	-0.256751
201	0x3e0f998e	0.1402342
202	0x3f477152	0.7790729
203	0xbe1c745c	-0.15278763
204	0xbfaa14b6	-1.328757
205	0x3fb1fcfa	1.3905327
206	0xbf3e532e	-0.7434567
207	0x3f6b0ea9	0.91819245
208	0xbf6c71fe	-0.9236144
209	0x3f6abe2d	0.91696435
210	0x3f1446d2	0.57920563
211	0x3f025360	0.5090847
212	0x3d3bdd7d	0.045865525
213	0xbf470952	-0.77748597
214	0x3f78dd50	0.97212696
215	0xbf723c90	-0.9462366
216	0x3e992759	0.29912832
217	0x3eae4139	0.34034136
218	0xbeb5254b	-0.35380015
219	0x3df5afd6	0.11996429
220	0xbf150f02	-0.58226025
221	0x3f516908	0.8180089
222	0x3f05d4ea	0.52278006
223	0x3ea56f37	0.32311413
224	0x3e815090	0.25256777
225	0x3f82414d	1.0176178
226	0x4028dca2	2.6384664
227	0xbf319db3	-0.69381255
228	0xbf5059a7	-0.813868
229	0x3f8e6641	1.1124955
230	0x3fcb09a7	1.5862321
231	0x403e1142	2.9698033
232	0xbf380613	-0.7188427
233	0x3e88d68a	0.2672618
234	0xbf87ace9	-1.0599643
235	0xbf803690	-1.0016651
236	0xbf41456c	-0.75496554
237	0xbf6103ff	-0.8789672
238	0xbf022d8a	-0.5085074
239	0xbf8023fb	-1.001098
240	0xbfc1f38c	-1.515245
241	0xbead3db5	-0.3383614
242	0x3fbd99f2	1.4812605
243	0xbe8fe400	-0.28103638
244	0x3faf97b0	1.3718166
245	0xbef7efb1	-0.48425058
246	0x3e0b4dc2	0.13603881
247	0xbcf33bf3	-0.029691672
248	0x3f1b6064	0.60693955
249	0x3e0406b2	0.12893179
250	0xbf894ad0	-1.0725956
251	0xbf0b1580	-0.5432968
252	0x3f1941ba	0.59865916
253	0x3eb93364	0.3617202
254	0xbe5cf51b	-0.21577875
255	0xbe9687ec	-0.29400575

layers.0.self_attn.in_proj_weight f4 [192, 64]
0	0x3d58ff9c	0.052978143
1	0x3c3bb5b0	0.011456892
2	0x3e0f7adb	0.1401171
3	0xbc84fa63	-0.016232675
4	0x3e06578f	0.13119338
5	0xbe2cb6ca	-0.16866603
6	0xbd2f4fe8	-0.042800814
7	0xbe2b57cf	-0.16732715
8	0x3ddab254	0.10678545
9	0x3d51de73	0.051237535
10	0xbc74b31e	-0.014935283
11	0x3dfc338e	0.12314521
12	0xbd2c78dd	-0.04210745
13	0x3e0044c2	0.12526229
14	0xbddf8a0c	-0.10915002
15	0xbcddf97f	-0.027096508
16	0xbd580c31	-0.052746
17	0x3c438951	0.011934594
18	0xbdc7a745	-0.09748701
19	0x3dca9236	0.09891169
20	0xbd29a6ad	-0.04141872
21	0x3de7eaea	0.11324103
22	0xbacc9888	-0.0015609423
23	0xbe030b00	-0.12797165
24	0x3e1b696f	0.15176938
25	0xbd40cdfb	-0.04707144
26	0xbdfb7687	-0.12278467
27	0x3c425f09	0.011863478
28	0x3db56dbe	0.08858822
29	0x3dac360f	0.08408748
30	0xbd6d651f	-0.057957765
31	0x3c500224	0.012695823
32	0x3e06db7a	0.13169661
33	0x3e05f454	0.13081485
34	0x3dbdd292	0.09268679
35	0x3d0b3eec	0.033995554
36	0xbd8124f8	-0.06305879
37	0x3b8fb1ac	0.004385194
38	0x3e1717bf	0.14755152
39	0xbd6a7ef1	-0.057249967
40	0x3d7069dc	0.058694705
41	0xbe23f32a	-0.16010728
42	0x3de2f2a6	0.11081438
43	0xbc8251f6	-0.015908223
44	0xbde4c30f	-0.11170017
45	0x3dd38565	0.10328177
46	0x3defdc75	0.11711971
47	0x3e3f635e	0.1869025
48	0xbd926fc7	-0.07150226
49	0xbd8abec7	-0.06774669
50	0x3ce453d9	0.027872013
51	0x3cea6477	0.028612358
52	0x3dfc4fcc	0.123199075
53	0xbd2138e4	-0.039360896
54	0x3e0ca9db	0.1373667
55	0x3dad4dc1	0.08462096
56	0xbae3e72e	-0.0017387623
57	0x3da3b690	0.079938054
58	0xbe209c5b	-0.15684645
59	0xbdcb3c87	-0.09923654
60	0x3e1b6903	0.15176778
61	0xbdd9298d	-0.10603628
62	0xbe3233c0	-0.17402554
63	0x3e1a80f6	0.15088257
64	0x3d1dc3fc	0.038516983
65	0xbdf403db	-0.11914798
66	0x3d856d22	0.06514956
67	0x3d83e1e4	0.064395696
68	0x3da852e3	0.082189344
69	0x3d8363a8	0.06415492
70	0xbcc7b53b	-0.02437841
71	0xbe136405	-0.14393623
72	0x3ca52167	0.020157529
73	0x3e1e1b71	0.15440156
74	0xbde23122	-0.110445276
75	0xbdc89c92	-0.097954884
76	0x3dea542f	0.11441838
77	0x3dd43013	0.10360732
78	0x3c6efe9c	0.014587071
79	0xbdda2594	-0.10651699
80	0xbde86261	-0.11346889
81	0xbc5c27e7	-0.013437248
82	0xbe0b673d	-0.13613601
83	0xbe0fbc35	-0.14036639
84	0xbe000201	-0.12500764
85	0x3e2d2e47	0.16912185
86	0xbd9daad9	-0.07698602
87	0xbe4cde7e	-0.20006749
88	0x3e00b751	0.1256993
89	0x3e1ab579	0.15108289
90	0xbe345264	-0.17609555
91	0xbd913064	-0.07089308
92	0x3e3bb802	0.18331912
93	0x3cbde2e3	0.023179477
94	0x3df4638f	0.11933052
95	0xbd0b8f5d	-0.03407227
96	0x3d63c308	0.05560592
97	0x3e18a06e	0.14904949
98	0x3e02cd30	0.12773585
99	0xbe2971f7	-0.1654738
100	0xbdb60c2d	-0.08889041
101	0xbcc9a1ec	-0.024613343
102	0xbd77a215	-0.060457308
103	0xbb6adb1c	-0.0035836166
104	0x3d212f30	0.039351642
105	0x3c4d1d53	0.0125191985
106	0xbdf30772	-0.118666545
107	0x3dd1e753	0.102492
108	0x3e309cee	0.17247364
109	0xbdd48599	-0.10377044
110	0xbdf04112	-0.11731161
111	0xbc462e61	-0.0120960185
112	0xbd5f9c49	-0.054592405
113	0xbd4a39b8	-0.04937145
114	0xbce6907c	-0.028145067
115	0xbe0470fc	-0.12933725
116	0xbe18a312	-0.14905956
117	0xbc4b50f6	-0.012409439
118	0x3e0c7750	0.13717389
119	0xbdd7f822	-0.105453745
120	0x3e3ef320	0.18647432
121	0x3d9bbffc	0.076049775
122	0x3cf5a083	0.029983765
123	0x3d9e7119	0.077364154
124	0x3d6b08b5	0.05738135
125	0xbc3494e1	-0.011021824
126	0xbe3c4474	-0.18385488
127	0xbd15f7a8	-0.036613137
128	0x3c5c0322	0.013428481
129	0x3d3697cc	0.04457836
130	0xbdeaf6d5	-0.11472861
131	0x3dfc0f0e	0.12307559
132	0xbd88575a	-0.06657286
133	0xbc87d030	-0.016578764
134	0xbe18885a	-0.14895764
135	0xbe03b9b2	-0.12863806
136	0x3c98e02e	0.018661585
137	0xbd120a44	-0.03565432
138	0x3bd61277	0.006532963
139	0xbdd28ba6	-0.10280542
140	0x3df926c3	0.12165596
141	0x3de43bb7	0.11144202
142	0xbda5f09b	-0.081025325
143	0xbe2061c5	-0.15662296
144	0xbdc046cb	-0.09388503
145	0xbdb48175	-0.088137545
146	0x3df38989	0.11891467
147	0x3d3e07b8	0.04639408
148	0x3d9bd681	0.07609273
149	0xbcef46bc	-0.029208533
150	0x3dad0d49	0.084497996
151	0xbd4e7af2	-0.05041022
152	0x3d63fac4	0.05565907
153	0x3e429314	0.19001418
154	0x3e28a068	0.1646744
155	0xbde80603	-0.11329272
156	0xbd98083d	-0.07423446
157	0xbe00aaec	-0.12565202
158	0x3dd16c7e	0.10225771
159	0xbdb21e07	-0.086971335
160	0x3da59ec2	0.08086921
161	0xbd962040	-0.0733037
162	0x3d91f5f3	0.07126989
163	0xbdc3f82d	-0.0956882
164	0xbd9d2b79	-0.076743074
165	0x3c80cff0	0.015724152
166	0xbe006e08	-0.12541974
167	0x3d81893a	0.06325002
168	0xbc79fca1	-0.015257985
169	0xbe32f7a3	-0.17477278
170	0xbdcb52de	-0.09927915
171	0x3ca37ef8	0.019958004
172	0xbe05c09b	-0.13061754
173	0xba6403e7	-0.0008698091
174	0xbdcf0b43	-0.1010957
175	0xbd6ff3b9	-0.05858204
176	0x3e29dd09	0.16588224
177	0x3e2d75b5	0.16939433
178	0xbc98ee1b	-0.018668225
179	0xbd370766	-0.04468479
180	0xbdba4c99	-0.09096641
181	0x3ce28feb	0.027656516
182	0xbc63f497	-0.013913295
183	0xbabcc14d	-0.001440087
184	0x3c269783	0.010167959
185	0x3bb7fea4	0.0056150723
186	0xbd752119	-0.059846018
187	0xbcb4108b	-0.021980545
188	0x3ddbd535	0.107340254
189	0xbd64a080	-0.055817127
190	0xbb7577ce	-0.0037455442
191	0xbcab55dd	-0.020914966
192	0xbd93ce91	-0.07217134
193	0xbda8a34e	-0.08234273
194	0xbd976345	-0.07391981
195	0x3bd77d69	0.0065762294
196	0x3da87481	0.08225346
197	0xbd2b2c46	-0.04179027
198	0x3e22b5f0	0.15889716
199	0x3bc6519d	0.0060522095
200	0xbd438125	-0.047730584
201	0x3d7485af	0.059697803
202	0xbdecb3f1	-0.115577586
203	0x3e0e0bc8	0.13871682
204	0xbe21e4f3	-0.15809993
205	0xbdd028a5	-0.10164002
206	0xbd9dd691	-0.07706941
207	0x3affd067	0.0019517065
208	0xbd78b490	-0.060719073
209	0xbe11b5d5	-0.1422952
210	0x3d7992f6	0.06093117
211	0xbe0a6673	-0.13515644
212	0x3da464e5	0.080270566
213	0x3c9b12bd	0.018929834
214	0xbde4f838	-0.111801565
215	0xbcb8dd42	-0.022566441
216	0x3d564d4e	0.052319817
217	0xbdb655d8	-0.08903092
218	0x3e3bd02f	0.18341134
219	0x3e1377c2	0.14401153
220	0xbdf23bde	-0.11827825
221	0x3d334b43	0.043772947
222	0xbe2f8024	-0.17138726
223	0x3e3b7108	0.18304837
224	0x3ca50b85	0.020147095
225	0x3d789860	0.06069219
226	0x3dbfabbb	0.09358927
227	0x3e2a41a8	0.16626608
228	0xbe079bab	-0.13242976
229	0x3e0a24be	0.13490579
230	0xbda596e3	-0.0808542
231	0xbdcedda0	-0.10100865
232	0x3d5729f5	0.052530248
233	0xbc29b9d8	-0.01035925
234	0x3d9646c7	0.073377185
235	0x3c31ed69	0.010859826
236	0x3db4b871	0.08824242
237	0xbd480df3	-0.048841428
238	0x3de21eb1	0.1104101
239	0x3c8438ed	0.016140426
240	0x3c1e8556	0.009675344
241	0x3d1e3402	0.038623817
242	0xbe27b227	-0.16376553
243	0x3da59bf2	0.08086385
244	0x3e0e9f94	0.13928062
245	0x3dfc10d4	0.12307897
246	0xbd15b083	-0.036545288
247	0xbc88ffb4	-0.016723491
248	0xbd8242ed	-0.06360421
249	0xbe1f7f03	-0.15575795
250	0xbdb1a0a0	-0.08673215
251	0xbd8fb4bc	-0.07016894
252	0x3ca858c1	0.020550134
253	0x3d81bc7c	0.06334779
254	0xbd926cde	-0.07149671
255	0x3dade732	0.08491363

layers.0.self_attn.in_proj_bias f4 [192]
0	0x3a690335	0.00088887225
1	0xbce54670	-0.027987689
2	0x3d222b06	0.03959181
3	0xbcbd4795	-0.023105422
4	0xbd900cad	-0.07033668
5	0x3e16594c	0.14682502
6	0x3db90562	0.0903423
7	0x3ba46ce2	0.0050178627
8	0x3d968414	0.07349411
9	0xbd2f9c06	-0.042873405
10	0x3df89924	0.12138584
11	0x3d0b22e4	0.03396882
12	0x3c76421e	0.015030412
13	0x3db9a115	0.09063927
14	0xbdaf0720	-0.08546281
15	0x3dbabedb	0.09118434
16	0x3dd4c5e5	0.10389308
17	0x3c95e9cd	0.018299961
18	0xbddcd81e	-0.107834086
19	0x3d9e9f86	0.077452704
20	0x3c65e685	0.014032011
21	0x3cdb69f8	0.026783928
22	0x3d9cef9b	0.076628886
23	0xbcac9b83	-0.021070248
24	0xbd3ab821	-0.045585755
25	0x3cea7dae	0.028624382
26	0xbacb6a28	-0.0015519308
27	0x3d1d935a	0.038470604
28	0xbd96fc96	-0.07372396
29	0xbdb847bd	-0.08998058
30	0xbdbf6845	-0.0934606
31	0x3c3c9838	0.011510901
32	0xbd161ca2	-0.0366484
33	0x3d3a5707	0.045493152
34	0x3e11fb4e	0.14256021
35	0x3d8934ab	0.06699499
36	0x3db58ba8	0.08864528
37	0x3d14a161	0.036286715
38	0x3c8e85be	0.017397758
39	0x3c090db4	0.0083650835
40	0xbcaa7dda	-0.020811964
41	0x3d8e91b1	0.06961382
42	0xbcc6d3f1	-0.024270983
43	0xbc1904ed	-0.009339553
44	0xbe11a8e7	-0.14224587
45	0xbd7585db	-0.059942108
46	0x3e20e6aa	0.15712991
47	0xbd714e18	-0.058912367
48	0xbb74f38e	-0.0037376615
49	0xbd37f52e	-0.044911556
50	0xbd9f76bf	-0.07786321
51	0xbc5c698b	-0.013452898
52	0xbdcf9f63	-0.101378225
53	0x3d527d23	0.05138887
54	0x3da73f4a	0.08166368
55	0xbd346d1d	-0.04404937
56	0xbd6ab521	-0.057301644
57	0x3df5d3f1	0.12003315
58	0x3d020f4d	0.031752873
59	0xbda001c8	-0.0781284
60	0xbd524aa6	-0.05134072
61	0x3daf214b	0.08551272
62	0x3dce0dda	0.10061236
63	0x3dd4276d	0.10359082
64	0x390a42ed	0.00013185637
65	0x3a90e076	0.0011053223
66	0xbaae2e14	-0.0013288879
67	0x38f46a8e	0.00011654674
68	0xbaa8d07f	-0.001287952
69	0x3a602e51	0.00085518236
70	0xba86b7d2	-0.0010278171
71	0xba46dfec	-0.00075864675
72	0x3a137c5a	0.0005626135
73	0xba0e4e37	-0.0005428525
74	0x39cbb74c	0.00038855744
75	0x3847def2	4.765293e-05
76	0x390a33fc	0.00013180071
77	0xbaaea547	-0.0013324403
78	0x38633dd4	5.41786e-05
79	0x3a0ff13b	0.0005490963
80	0xb93aca02	-0.00017813596
81	0x3a452326	0.0007520191
82	0xb9dd517f	-0.00042213124
83	0xb8812538	-6.158132e-05
84	0xb9c4d090	-0.00037539424
85	0x3966f007	0.00022023926
86	0x39ed90bb	0.00045311995
87	0x3aa35414	0.001246097
88	0xba39536c	-0.0007069621
89	0xb90e3756	-0.0001356279
90	0xb92e745b	-0.00016637279
91	0x3a4e0b62	0.00078599725
92	0xb9bbe58e	-0.0003583845
93	0x3932c504	0.00017048797
94	0xb7063bce	-8.000947e-06
95	0x398e589d	0.00027150373
96	0x3956be9a	0.00020479635
97	0xb9aee3a0	-0.0003335746
98	0x3a91d604	0.0011126404
99	0xbaaf87f5	-0.0013391959
100	0x39a2bcfa	0.00031039846
101	0x3a15f268	0.000572002
102	0xba316358	-0.00067668175
103	0xba28aaec	-0.0006434161
104	0x3a195299	0.0005848795
105	0x3979e0ba	0.00023830208
106	0xb928db2a	-0.00016103373
107	0x3a0178c2	0.0004938954
108	0x3985663f	0.00025443916
109	0x39adeea8	0.00033174944
110	0xb965d606	-0.00021918872
111	0xba1feff3	-0.0006101124
112	0x3a919c88	0.0011109272
113	0x39cb99b2	0.0003883369
114	0x391c3530	0.00014897133
115	0x38d4790c	0.000101314945
116	0x3940148a	0.00018318198
117	0xb95eb6d0	-0.00021239673
118	0x392c5fcf	0.0001643889
119	0xba6b52d9	-0.0008976884
120	0x3a6a2beb	0.0008932936
121	0x3a6de0ca	0.00090743287
122	0xb7025f2c	-7.770763e-06
123	0x39c96f2d	0.0003842054
124	0x398541f7	0.00025416884
125	0xba4ef45a	-0.00078946876
126	0xb9c6ad59	-0.00037894657
127	0xba66efe7	-0.0008809552
128	0x3cb75fe8	0.022384599
129	0xbb8778a2	-0.0041342536
130	0xbca232da	-0.019799639
131	0x3bd24039	0.0064163473
132	0xbc8a42d1	-0.016877564
133	0xbcb0923f	-0.02155411
134	0xb9beeb8a	-0.00036415114
135	0x3c750b60	0.014956325
136	0x3cc44a52	0.02396122
137	0x3c4504fb	0.012025113
138	0xbc061f95	-0.008186241
139	0xbad3633c	-0.0016127597
140	0xbb9a08d8	-0.0047007613
141	0x3ba7b189	0.0051175994
142	0x3c32fd57	0.010924659
143	0xbcadf884	-0.021236666
144	0xbb34d61a	-0.0027593435
145	0xbbbfe02e	-0.0058555817
146	0xbb387079	-0.002814321
147	0xbd1a84f3	-0.037724447
148	0xbcaa90b7	-0.020820959
149	0xbb15bf00	-0.002284944
150	0xbcdfe873	-0.02733252
151	0xbc8f9d1d	-0.017530972
152	0x3c8d4f9f	0.01724988
153	0x3d071ed9	0.032988403
154	0x3c2c2e69	0.010509112
155	0x3d041eb2	0.032255836
156	0x3ccc65bd	0.024950856
157	0xbadb8439	-0.001674778
158	0xbb7b450a	-0.003834071
159	0xbcc2667d	-0.02373051
160	0x3c3910e6	0.011295533
161	0xbc1c262e	-0.009530587
162	0x3cc137fd	0.023586268
163	0x3d404ac6	0.04694631
164	0xbbf05b75	-0.0073351213
165	0x3b6bb608	0.0035966653
166	0xbc2d72e3	-0.010586473
167	0x3ca22df1	0.019797297
168	0xbc76cda3	-0.015063676
169	0x3cd8823a	0.026429284
170	0x39e7e918	0.00044233422
171	0x3be756bc	0.0070599
172	0x3c73c6bc	0.014878925
173	0xbb506230	-0.0031796806
174	0x3bd6a77e	0.0065507283
175	0xbc9821bd	-0.018570775
176	0x3ca2c598	0.01986961
177	0xbc1a2172	-0.009407388
178	0x3c42303a	0.011852318
179	0xbb6594d8	-0.0035031345
180	0xbcb690ea	-0.022285897
181	0xbc44c885	-0.012010698
182	0x3b9ffa3e	0.004882126
183	0xbc9a0c2a	-0.018804628
184	0x3cadd31e	0.021218833
185	0x3c9b6fc8	0.0189742
186	0x3c7375cd	0.014859629
187	0x3cc9d10b	0.024635812
188	0xbcb058c3	-0.0215267
189	0x3d09fce7	0.033688452
190	0xbc7eacf2	-0.015544163
191	0x3d09b906	0.033623718

layers.0.self_attn.out_proj.weight f4 [64, 64]
0	0xbcdfbc83	-0.02731157
1	0xbd73e9c9	-0.059549127
2	0xbd53a00f	-0.051666316
3	0xbcc8abde	-0.024496015
4	0xbc8c91e0	-0.017159402
5	0x3baaab2e	0.0052083945
6	0x3e1458c4	0.14486986
7	0x3dce8818	0.100845516
8	0xbe1338d5	-0.14377148
9	0xbc393768	-0.011304714
10	0x3d9314fa	0.07181735
11	0xbc0aa43d	-0.008462009
12	0x3dc5eac7	0.09663921
13	0x3dfabb16	0.12242715
14	0xbe0bd366	-0.13654861
15	0xbdeb9734	-0.11503449
16	0x3e36304d	0.17791863
17	0x3d5c6cb6	0.053814612
18	0x3d84988d	0.06474409
19	0x3d36ec8a	0.044659175
20	0xbd5e9971	-0.054345552
21	0xbd8560da	-0.065126136
22	0x3cc67817	0.024227185
23	0x3dd9033b	0.10596319
24	0xbc1a8e37	-0.009433321
25	0xbd41a79a	-0.047278978
26	0x3d768a87	0.060190704
27	0xbd8490f6	-0.064729616
28	0xbddd93f2	-0.10819234
29	0xbe35a700	-0.17739487
30	0x3d19a3bd	0.03750967
31	0xbcf41674	-0.029795863
32	0xbc822b96	-0.015889924
33	0x3d85b587	0.06528764
34	0x3b9c1d69	0.004764248
35	0x3d51dc65	0.051235575
36	0x3d61f3a7	0.055164006
37	0xbcc1bb3e	-0.023648854
38	0xbddb38a0	-0.1070416
39	0x3d955a9f	0.07292675
40	0x3d10f784	0.0353923
41	0x3c434bde	0.011919944
42	0xbde0d635	-0.10978357
43	0xbe01b33f	-0.12666033
44	0xbcbfe16c	-0.02342292
45	0xbc0a097b	-0.008425112
46	0xbe11d622	-0.14241841
47	0x3d5a402f	0.053283866
48	0xbe0195e2	-0.12654832
49	0x3c5e3bd3	0.013564068
50	0xbd09529b	-0.033526044
51	0xbc00377a	-0.007825727
52	0xbc83c9ae	-0.01608738
53	0xbdd94e2f	-0.106106155
54	0x3c0aad65	0.008464192
55	0xbdc6e6a3	-0.09711959
56	0xbb982379	-0.0046429005
57	0xbd16377e	-0.036674015
58	0x3bd7328c	0.006567305
59	0x3dbe7dcc	0.093013376
60	0x3c795086	0.015216952
61	0xbd930e6b	-0.071804844
62	0xbd5324a7	-0.051548626
63	0xbd9bca4a	-0.07606943
64	0xbdd9f228	-0.10641891
65	0xbd935fbe	-0.07195996
66	0x3dfb034c	0.12256488
67	0x3e24d708	0.16097653
68	0x3cfb94a0	0.030710518
69	0xbe06990a	-0.13144317
70	0x3c0f4911	0.008745448
71	0x3d22311e	0.039597623
72	0x3cec1a6f	0.028821198
73	0x3ce50bf2	0.027959798
74	0x3e08e390	0.13368058
75	0x3e5dc61a	0.21657601
76	0xbcc3ed16	-0.023916762
77	0xbe03d5d5	-0.12874539
78	0xbaddc3a3	-0.0016919266
79	0x3d781060	0.06056249
80	0x3d2613a9	0.040546093
81	0xbd346bb6	-0.044048034
82	0xbd8ecad3	-0.069722794
83	0x3e1bac6e	0.15202495
84	0x3d5524c7	0.052037027
85	0x3cc9bb1b	0.024625352
86	0xbba33ba6	-0.004981476
87	0x3e224732	0.15847471
88	0xbe1dc7ee	-0.15408298
89	0xbb6ba099	-0.0035953878
90	0x3c3b8536	0.011445334
91	0xbd4302e9	-0.047610197
92	0xbd4edd56	-0.05050405
93	0xbd1045b3	-0.03522272
94	0x3dd2b4a1	0.102883585
95	0x3a74720a	0.00093248545
96	0xbd5cac79	-0.05387542
97	0xbd4f7f9a	-0.0506588
98	0xbd560cd8	-0.052258343
99	0x37a5e210	1.9774801e-05
100	0x3d1afbc2	0.03783775
101	0x3d40b0de	0.047043674
102	0x3dde684a	0.10859735
103	0xbdee6262	-0.11639859
104	0x3ddf2aa5	0.10896806
105	0x3c6beda0	0.014399916
106	0xbd0377dc	-0.03209673
107	0xbd15269c	-0.036413774
108	0x3d3726c1	0.044714693
109	0xbdf6c7fc	-0.12049863
110	0x3e473190	0.194525
111	0xbd796d9d	-0.06089555
112	0xbcdafac4	-0.026730902
113	0xbd3e3e3a	-0.046446063
114	0xbd87f4d4	-0.06638494
115	0xbda7b253	-0.081883095
116	0x3ca2d333	0.019876098
117	0xbdb680de	-0.08911298
118	0x3c86fd5b	0.016478231
119	0x3d87b7fd	0.0662689
120	0xbd949cc7	-0.072564654
121	0xbe0f4d6f	-0.13994382
122	0x3d8b899a	0.06813355
123	0xbce44e23	-0.02786929
124	0xbdfe68b3	-0.124223135
125	0x3d5a84f3	0.053349447
126	0x3da13da1	0.07873083
127	0xbd8a20b6	-0.0674452
128	0x3d94d800	0.07267761
129	0x3cd4fc67	0.025999261
130	0x3a4bbd60	0.00077720545
131	0xbdd46789	-0.1037131
132	0xbe1740e1	-0.14770843
133	0x3e0431c6	0.12909612
134	0xbd7439b1	-0.05962533
135	0xbc8cfa95	-0.01720933
136	0x3d5940c7	0.053040292
137	0x3da6d22f	0.08145558
138	0x3db8de27	0.09026747
139	0xbd70f89e	-0.05883085
140	0x3e087ded	0.13329287
141	0x3d650e45	0.05592181
142	0xbe0b924f	-0.13630031
143	0xbd185cf8	-0.037198037
144	0xbe19646c	-0.14979714
145	0x3dab3b0a	0.0836087
146	0x3e0814db	0.13289206
147	0x3dbf6ee1	0.0934732
148	0x3db69648	0.089153826
149	0xbd08e54a	-0.033421792
150	0x3a6bb042	0.0008990803
151	0xbdb74dbe	-0.08950375
152	0x3d987e4f	0.074459665
153	0x3d1ec308	0.038760215
154	0xbcfa3354	-0.030542053
155	0xbd02096d	-0.03174727
156	0x3d4ad9d4	0.049524143
157	0xbd1e1d28	-0.038602024
158	0x3e2aa9f7	0.16666399
159	0xbd729db3	-0.059232425
160	0xbd9dedda	-0.07711382
161	0xbc4d302f	-0.012523695
162	0xbdc7e0b7	-0.09759658
163	0xbd7681dc	-0.060182437
164	0x3dc12226	0.094303414
165	0xbd94a144	-0.072573215
166	0xbda83145	-0.082125224
167	0xbe05b8dc	-0.130588
168	0xbe3b5724	-0.1829496
169	0x3da9aa6b	0.08284458
170	0xbd800c0b	-0.06252297
171	0xbd172017	-0.036895838
172	0xbcae66f2	-0.021289323
173	0xbd768c6d	-0.060192514
174	0x3e1204e6	0.14259681
175	0x3d968af7	0.07350724
176	0xbdd4b314	-0.10385719
177	0x3c889bcc	0.016675852
178	0xbda9e79b	-0.08296128
179	0x3dd108c8	0.10206753
180	0x3dd60710	0.10450566
181	0xbd96c134	-0.07361069
182	0xbde30fa8	-0.110869706
183	0xbc0174a3	-0.0079013435
184	0x3df91ec7	0.121640734
185	0x3b2e5cc6	0.002660559
186	0x3c3bc6f6	0.01146101
187	0xbdae8650	-0.08521712
188	0xbd9a29de	-0.07527517
189	0xbcbb0a24	-0.022831984
190	0xbdca8428	-0.09888488
191	0x3c7fb7f6	0.015607825
192	0xbd29b03f	-0.041427847
193	0x3d95fcca	0.07323606
194	0xbddb41a7	-0.107058816
195	0x3d44eb1e	0.048075788
196	0xbdafa774	-0.08576861
197	0xbcec71b3	-0.02886281
198	0x3ceb87c7	0.028751267
199	0x3df0ccbd	0.11757801
200	0xbe0f3aae	-0.13987228
201	0x3d9abdfe	0.075557694
202	0x3dc7ea1b	0.09761449
203	0x3d965c56	0.073418304
204	0xbd78143f	-0.060566183
205	0xbd9d032f	-0.07666623
206	0xbd761519	-0.060078714
207	0xbd41abac	-0.04728286
208	0xbda502d1	-0.08057178
209	0xbd08c21c	-0.033388242
210	0x3d6fe363	0.058566462
211	0xbd69e401	-0.057102207
212	0xbd8d1139	-0.068880506
213	0x3dd5be96	0.10436742
214	0xbdf8d443	-0.12149861
215	0xbc7b50ac	-0.015339058
216	0xbde33827	-0.110946946
217	0x3cf68508	0.030092731
218	0x3cbba945	0.022907862
219	0x3bec6754	0.007214466
220	0xbd048cf6	-0.032360993
221	0xbda21b50	-0.07915366
222	0xbb9c1054	-0.0047626887
223	0x3de781c8	0.11304051
224	0xbc8f79c5	-0.017514119
225	0xbd0b75ae	-0.034047775
226	0x3d1acf66	0.037795447
227	0x3c1a38f6	0.009412995
228	0x3c38ab82	0.011271359
229	0xbd18f8ca	-0.03734664
230	0x3dfa1dc5	0.12212709
231	0xbd20214e	-0.03909426
232	0xbe261923	-0.16220526
233	0xbd20d648	-0.039266855
234	0xbd5d3c17	-0.054012384
235	0xbdeacc42	-0.1146474
236	0xbc90ee39	-0.017691718
237	0x3d9250c4	0.07144311
238	0xbd4391fd	-0.047746647
239	0x3c8e9cc2	0.017408732
240	0xbd6f95d5	-0.0584925
241	0xbcb1a729	-0.021686153
242	0x3d8a9b04	0.06767848
243	0xbe0b4484	-0.13600355
244	0x3d1079c0	0.03527236
245	0xbc2049ef	-0.009783252
246	0x3e01ce5c	0.12676376
247	0xbba5ff09	-0.005065803
248	0x3da17c52	0.0788504
249	0xbd423906	-0.047417663
250	0x3e02a224	0.12757164
251	0x3c98b1c3	0.01863945
252	0x3d9095f4	0.07059851
253	0x3cab7e49	0.02093424
254	0xbd97220c	-0.07379541
255	0x3d5ed5bb	0.054403048

layers.0.self_attn.out_proj.bias f4 [64]
0	0x3c3ab711	0.0113961855
1	0xbc3094ed	-0.010777694
2	0xbc46ca86	-0.012133246
3	0xbc9b254a	-0.01893868
4	0xbc262ccb	-0.010142515
5	0xbca4a378	-0.02009748
6	0xbc55e3a0	-0.013054758
7	0xbd082de6	-0.033246897
8	0x3cb7768c	0.022395395
9	0x3bbc3e93	0.005744764
10	0xbbf52a2e	-0.007481835
11	0xbd223b19	-0.03960714
12	0xbc24edb3	-0.010066438
13	0x3b6c1bda	0.0036027343
14	0x3cd42485	0.02589632
15	0x3ca18707	0.019717706
16	0xbcb3e3b9	-0.021959173
17	0xbc801a34	-0.015637495
18	0x3bbbf883	0.005736412
19	0x3c8d0ac1	0.017217042
20	0x3c53405d	0.012893763
21	0xbbfd19f7	-0.0077240425
22	0xbc817d6d	-0.015806878
23	0x3cae942a	0.021310885
24	0x3d168909	0.03675178
25	0xbae9717f	-0.0017810314
26	0x3c89bbfe	0.016813274
27	0x3c4ecf8f	0.012622728
28	0xbc924c84	-0.017858751
29	0xbc780dc3	-0.01514
30	0xbace3874	-0.0015733377
31	0x3ca3321b	0.019921353
32	0xb9caf51c	-0.00038711063
33	0xbb858158	-0.004074257
34	0x3b33fece	0.0027465108
35	0xbc704078	-0.014663808
36	0xbb15a52d	-0.0022834048
37	0x3c0fc548	0.008775063
38	0x3ccf4bd1	0.025304707
39	0xba9fae2b	-0.0012182643
40	0x3c2792eb	0.010227899
41	0xbc30d9c8	-0.010794111
42	0x3d380a0a	0.04493145
43	0x3d195f2f	0.03744429
44	0x3bc83f36	0.006111051
45	0x3cbd2614	0.023089446
46	0xbc87c127	-0.016571594
47	0x3c7301fa	0.014832014
48	0xbc9589c9	-0.018254178
49	0x3c9e1915	0.01929907
50	0x3ce2acc2	0.027670268
51	0xbc2551ab	-0.010090272
52	0x3b67d489	0.0035374484
53	0x3d2d8fa4	0.042373314
54	0x3c0cc20b	0.008591185
55	0x3bdbfcf5	0.0067135044
56	0x3be69c88	0.007037703
57	0x3d0323c5	0.032016534
58	0x3b8ebd96	0.0043560965
59	0x3c66710d	0.014065039
60	0xbc0dd19b	-0.008655931
61	0xbd4567f1	-0.04819483
62	0xbd037a44	-0.032099023
63	0xbca52ca6	-0.020162892

layers.0.linear1.weight f4 [256, 64]
0	0xbcbf1e3e	-0.02332985
1	0xbc5e54dd	-0.013570038
2	0x3d91b4c3	0.07114556
3	0xbda443b0	-0.08020723
4	0xbddcfae1	-0.10790039
5	0xbcf399d8	-0.029736444
6	0xbd5fe18d	-0.05465846
7	0x3d42904d	0.047500897
8	0xbdf76917	-0.12080591
9	0xbd9732ef	-0.07382762
10	0xbd90fda7	-0.0707963
11	0xbbfbf410	-0.0076890066
12	0x3d0fb037	0.03508016
13	0xbdfcec79	-0.12349791
14	0x3dc49766	0.095991895
15	0xbd812e21	-0.063076265
16	0x3b2b2687	0.0026115493
17	0xbc012f44	-0.007884804
18	0xbd40289b	-0.046913724
19	0xbdcc114e	-0.09964238
20	0x3e348ea3	0.17632537
21	0xbdd004e0	-0.1015718
22	0xbcb6ef3f	-0.022330878
23	0x3d3929e1	0.045205954
24	0xbd220bfa	-0.039562203
25	0xbd7801ae	-0.060548477
26	0xbc73a5cb	-0.014871071
27	0xbdb2a696	-0.0872318
28	0xbe012000	-0.12609863
29	0x3e10b8f2	0.14133051
30	0x3b8098ca	0.003924464
31	0xbddf0686	-0.10889916
32	0x3d8c6961	0.06856037
33	0xbd85f11b	-0.06540128
34	0x3dc18a8f	0.09450256
35	0xbd43b908	-0.04778388
36	0xbd6c97f5	-0.057762105
37	0xbd1f5c71	-0.03890652
38	0x3ce63c19	0.028104829
39	0xbc305ca4	-0.010764275
40	0xbcb2c242	-0.021821145
41	0xbdae818f	-0.08520805
42	0x3e00f417	0.12593113
43	0x3d96f45d	0.07370827
44	0x3ce99683	0.028514152
45	0xbe06d4f5	-0.13167174
46	0x3d152176	0.036408864
47	0x3df83cc7	0.12120967
48	0x3b3011d5	0.0026866097
49	0x3dada000	0.08477783
50	0xbcf4ce7b	-0.029883614
51	0xbdbe39db	-0.09288379
52	0xbdbd8695	-0.09254185
53	0x3def10cc	0.116731256
54	0xbc04f351	-0.008114652
55	0xbcc7c5e4	-0.024386354
56	0xbc384f09	-0.011249312
57	0x3d302f2f	0.043013748
58	0xbbf57062	-0.0074902037
59	0x3d2fab0f	0.042887744
60	0xbdd6706d	-0.10470662
61	0x3dfba1f2	0.12286748
62	0x3c4c3513	0.012463826
63	0xbe1e8f69	-0.15484394
64	0xbd590178	-0.052979916
65	0xbdac72cc	-0.08420333
66	0xbd0aa0b0	-0.03384465
67	0xbac6399c	-0.001512337
68	0x3d83160b	0.06400689
69	0x3e31f840	0.17379856
70	0x3d95559e	0.07291721
71	0xbbedb662	-0.0072544077
72	0xbdb1e991	-0.086871274
73	0x3ddb10fc	0.10696599
74	0x3d011f66	0.031524085
75	0x3db21c5d	0.08696816
76	0xbaaa7bcf	-0.0013006869
77	0xbc91da4f	-0.017804293
78	0x3d19a7b2	0.037513442
79	0x3c8b2071	0.016983243
80	0x3c9b6bdf	0.018972335
81	0x3cab7068	0.020927623
82	0xbdbbf658	-0.09177846
83	0xbddbfb96	-0.107413456
84	0x3dba8e05	0.09109119
85	0x3caaee2c	0.020865522
86	0xbdbc59fe	-0.09196852
87	0x3d23d161	0.0399946
88	0x3dda605e	0.10662912
89	0x3deed2bb	0.116612874
90	0x3c2fdb4f	0.01073344
91	0xbc418e77	-0.011813751
92	0xbc18019b	-0.0092777265
93	0xbc945d7f	-0.018110989
94	0x3be279e5	0.0069115036
95	0xbccb8f36	-0.024848562
96	0x3d994242	0.07483341
97	0x3d9dc4ad	0.077035286
98	0x3dd0c13e	0.10193108
99	0x3d4599d9	0.048242424
100	0x3df87f0a	0.12133606
101	0x3de0c226	0.10974531
102	0xbdc0192c	-0.09379801
103	0xbd4c36fe	-0.049857132
104	0xbb66e419	-0.0035231172
105	0xb80b7073	-3.324491e-05
106	0xbe171fe5	-0.1475826
107	0xbd221713	-0.039572787
108	0x3cdfac51	0.027303847
109	0xbd29a4ac	-0.04141681
110	0xbcf8bddf	-0.030363975
111	0xbd2b5865	-0.041832346
112	0x3dc464cd	0.09589539
113	0xbe16217c	-0.14661211
114	0x3dc178a7	0.09446841
115	0x3d9606bd	0.07325504
116	0xbd87fe7f	-0.06640338
117	0x3bfe2163	0.007755445
118	0x3d1d0dba	0.03834317
119	0xbe07f493	-0.13276891
120	0x3d37bffb	0.04486082
121	0x3c621522	0.013798984
122	0x3debe01c	0.11517355
123	0xbdd558cc	-0.10417327
124	0x3cf11d4e	0.029432919
125	0x3d750a5b	0.05982433
126	0x3d3e0096	0.046387278
127	0xbdb2b1ee	-0.08725344
128	0x3dd78cb9	0.105248876
129	0x3ce13a7b	0.027493706
130	0xbc4e5557	-0.012593589
131	0x3c9d359b	0.0191906
132	0xbdbea1a6	-0.09308176
133	0x3cd3230d	0.02577355
134	0xbd39ebb2	-0.045390792
135	0x3da9044b	0.08252772
136	0x3d8b809e	0.06811641
137	0xbe1fe0cb	-0.15613095
138	0xbdb62d3c	-0.088953465
139	0xbcc0f928	-0.023556307
140	0xbd32be62	-0.043638594
141	0xbd904c2f	-0.07045781
142	0xbcd752e3	-0.02628464
143	0xbdd31183	-0.103060745
144	0x3dc7b86b	0.09751972
145	0xbcd0cd73	-0.02548859
146	0xbd9f24af	-0.07770669
147	0xbd1f75e4	-0.03893079
148	0xbd1e6e60	-0.03867948
149	0xb8a1ff92	-7.724682e-05
150	0xbde0516f	-0.10953032
151	0xbdd4e7e8	-0.10395795
152	0xbcfdac8a	-0.030966062
153	0xbd1e9cb8	-0.038723677
154	0xbd97bf7b	-0.07409569
155	0x3df0fd41	0.11767054
156	0xbce72f45	-0.028220782
157	0x3c1cf040	0.009578764
158	0x3d64ff39	0.05590746
159	0xbd505ed9	-0.050871704
160	0xbda7d6b3	-0.081952475
161	0xbd92ab6a	-0.07161601
162	0xbdc5ee2c	-0.09664568
163	0x3e01ac64	0.12663418
164	0x3caa0d2b	0.020758232
165	0xbcd273e1	-0.025690021
166	0xbd2bdfbb	-0.041961413
167	0xbd32c06d	-0.043640543
168	0xbdc03ae0	-0.093862295
169	0x3c7dc16e	0.015488012
170	0xbd86ae0a	-0.06576164
171	0x3cd5d685	0.026103267
172	0x3d99452d	0.07483897
173	0x3a39b554	0.000708421
174	0x3cff54b4	0.03116832
175	0xbcc07447	-0.023492945
176	0x3e29798e	0.16550276
177	0x3defcf1c	0.11709425
178	0xbdcf386c	-0.101181835
179	0x3d266465	0.040623087
180	0xbb20ac5f	-0.0024516804
181	0xbddd60bf	-0.108094685
182	0x3df883ec	0.12134537
183	0x3ddfd17e	0.10928629
184	0xbd08d664	-0.033407584
185	0xbc17c5db	-0.009263481
186	0x3d5fce07	0.054639842
187	0x3d5bd02b	0.05366532
188	0x3dc9014b	0.098147
189	0xbd3ab165	-0.045579333
190	0x3df3ddc9	0.119075365
191	0xbcdb2730	-0.026752084
192	0x3dae466f	0.08509528
193	0x3d4c1eb9	0.049833987
194	0x3da129e9	0.07869322
195	0x3c9c79b9	0.01910101
196	0xbd6a79c7	-0.057245042
197	0x3d9dfd5e	0.077143416
198	0x3d2e8804	0.042610183
199	0x3dd2a53a	0.10285421
200	0x3dcd432b	0.10022577
201	0xbd0e7fca	-0.034789838
202	0x3dcdc8f4	0.100480944
203	0x3d260d2b	0.0405399
204	0xbd8c9fb3	-0.06866398
205	0x3e3096ef	0.17245077
206	0x3df18fb3	0.117949866
207	0xbdf6ccef	-0.12050807
208	0xbc98e4f7	-0.018663866
209	0xbded6a30	-0.11592519
210	0x3b158bff	0.002281904
211	0xbe27ebf5	-0.16398604
212	0x3da6c30b	0.0814267
213	0xbb196c6d	-0.0023410574
214	0xbcda6a3e	-0.026661988
215	0x3da81457	0.082070045
216	0x3d587812	0.052848883
217	0xbc93a6b6	-0.01802383
218	0x3d939230	0.072056174
219	0x3daa0c95	0.08303181
220	0xba6d2f23	-0.00090478564
221	0x3e0679aa	0.13132349
222	0x3daaa861	0.08332897
223	0xbcd8d626	-0.026469301
224	0x3db23db9	0.08703179
225	0xbbd60f19	-0.0065325615
226	0xbde22ef2	-0.1104411
227	0x3dca3713	0.09873786
228	0xbde7ba90	-0.11314881
229	0x3d43b780	0.04778242
230	0xbddd0bea	-0.10793288
231	0x3cb4ed72	0.022085879
232	0x3d2d1bba	0.04226277
233	0xbe042cf7	-0.12907778
234	0x3e42c7a2	0.19021466
235	0xbcc7a96c	-0.024372779
236	0xbd308b8c	-0.043101832
237	0xbd62c8a8	-0.055367142
238	0x3d8bc8aa	0.06825383
239	0x3d4066ab	0.04697291
240	0xbe00ea7c	-0.12589449
241	0x3d87376e	0.06602369
242	0x39af6899	0.00033456532
243	0xbd848a36	-0.06471674
244	0x3b1ec491	0.002422605
245	0xbd1ed2f2	-0.038775392
246	0xbafd615e	-0.0019331386
247	0x3dad7886	0.08470254
248	0x3bc6fe57	0.0060728
249	0x3cc524d6	0.024065416
250	0x3d75c2a4	0.060000077
251	0xbc9dd7c4	-0.019267924
252	0xbdbb8aed	-0.09157357
253	0xbd9cd377	-0.07657521
254	0x3dd2721d	0.10275672
255	0xbd2f481d	-0.042793382

layers.0.linear1.bias f4 [256]
0	0xbceb5804	-0.028728493
1	0xbda677b8	-0.08128303
2	0x3c8cf99b	0.017208865
3	0xbbf36e18	-0.0074288957
4	0xbdfef270	-0.12448585
5	0xbc9c4d19	-0.019079732
6	0x3ddad221	0.1068461
7	0xbe40b80a	-0.18820205
8	0xbdd7defa	-0.10540576
9	0x3d788454	0.060673073
10	0x3da44526	0.080210015
11	0x3c72e171	0.014824257
12	0xbdc6c304	-0.09705165
13	0xbdee0cdd	-0.11623547
14	0xbd97bd7b	-0.074091874
15	0x384b0ec3	4.841272e-05
16	0xbdd01afd	-0.101613976
17	0xbc3416e1	-0.010991783
18	0x3c213765	0.009839867
19	0xbcc71286	-0.024300825
20	0xbcfadf87	-0.030624164
21	0x3dcb87fd	0.09938047
22	0xbced6aac	-0.02898153
23	0x3c9f1741	0.019420268
24	0x3d0ae15d	0.03390633
25	0x3c1336b3	0.008985209
26	0xbd288353	-0.041140866
27	0x3bf1bd99	0.007377338
28	0xbdbd21b4	-0.09234944
29	0x3cd1f52e	0.025629606
30	0x3db243ef	0.087043636
31	0xbdc8db7e	-0.0980749
32	0x3db226cb	0.086988054
33	0xbd4e1f02	-0.05032254
34	0x3b22a37d	0.0024816685
35	0xbdb356d5	-0.08756796
36	0x3d371eac	0.044706985
37	0xbd312c4e	-0.043255143
38	0x3d3bf5af	0.0458886
39	0x3d2f5827	0.042808678
40	0x3d269582	0.040669926
41	0xbe0a1ff5	-0.13488753
42	0xbd8a204b	-0.06744441
43	0xbd7c286f	-0.061561998
44	0xbcc3c880	-0.023899317
45	0xbd825808	-0.06364447
46	0xbc571ba4	-0.013129149
47	0x3d9a77b2	0.07542361
48	0xbc2529ab	-0.010080735
49	0x3d308b64	0.043101683
50	0xbdfa1168	-0.12210351
51	0xbdbae37c	-0.091254205
52	0x3ccaa614	0.024737395
53	0xbdba9911	-0.09111226
54	0xbc680e4e	-0.014163567
55	0x3d88623d	0.066593625
56	0x3db73d6a	0.08947261
57	0x3bd5a395	0.0065197446
58	0x3d87826f	0.06616675
59	0xbc8dc296	-0.0173047
60	0x3bbda61b	0.0057876236
61	0xbca8deb8	-0.020614013
62	0xbdd51640	-0.104046345
63	0xbbb2a078	-0.0054512583
64	0xbdb3bfdd	-0.087768294
65	0xbe33ea20	-0.1756978
66	0xbdb6df30	-0.089292884
67	0xbdf74d86	-0.12075333
68	0x3c070a6f	0.008242234
69	0xbde21d69	-0.11040766
70	0xbd930a6f	-0.071797244
71	0xbe13d046	-0.14434919
72	0x3d80d919	0.06291408
73	0xbd8a2b26	-0.06746511
74	0xbe1d457d	-0.15358539
75	0xbdea901d	-0.11453269
76	0xbd9f9518	-0.07792109
77	0xbdc106b3	-0.09425106
78	0xbdb59d48	-0.0886789
79	0x3d4b21a2	0.04959262
80	0xbd1c3f61	-0.03814638
81	0x3d0e445e	0.03473317
82	0x3d046773	0.03232522
83	0xbd2ecab7	-0.042673793
84	0xbbf04d4d	-0.0073334337
85	0xbdbc5f60	-0.09197879
86	0xbe1d5d70	-0.15367675
87	0x3b7bb9f9	0.003841041
88	0xbcaa26d0	-0.02077046
89	0x3b218756	0.0024647317
90	0xbd23cba8	-0.039989144
91	0xbdfccdb6	-0.12343924
92	0xbd71594c	-0.05892305
93	0x3d5ccf15	0.053908426
94	0x3d50c848	0.050972253
95	0xbc3e433e	-0.0116127115
96	0xbe214437	-0.15748678
97	0xbd06888d	-0.03284507
98	0xbde3f274	-0.11130229
99	0xbd822394	-0.06354442
100	0xbda04f4d	-0.078276254
101	0xbda179ee	-0.07884584
102	0x3d9a47a7	0.07533198
103	0x3ce29519	0.027658986
104	0xbdc82889	-0.097733565
105	0xbe2d71a8	-0.16937888
106	0x3d3ff10b	0.046860736
107	0xbd639991	-0.055566374
108	0x3d592b5a	0.05301986
109	0xbc930db3	-0.017950868
110	0xbe20323d	-0.15644164
111	0x3dbb6dd0	0.091518044
112	0xbdb4778e	-0.08811866
113	0xbcc40ec4	-0.023932822
114	0xbd7114f1	-0.058857862
115	0xbcc1236e	-0.023576465
116	0xbda2bcce	-0.07946168
117	0x3df65267	0.12027436
118	0xbdef68db	-0.116899215
119	0x3d91c0aa	0.07116826
120	0x3d6d144a	0.057880677
121	0x3d86faa2	0.06590773
122	0xbdb9fedd	-0.090818144
123	0x3b02d375	0.0019962464
124	0xbd8d2351	-0.06891502
125	0xbd3b836f	-0.04577964
126	0xbd5bc236	-0.05365201
127	0x3b520746	0.0032047792
128	0x3d2119bb	0.03933118
129	0xbde4d643	-0.1117368
130	0xbdc2f4bb	-0.09519335
131	0x3ca8bc3f	0.020597575
132	0xbdea351a	-0.114359096
133	0x395088d6	0.00019887401
134	0xbd19fdc3	-0.03759552
135	0x3d6c2bb5	0.05765887
136	0x3d4b4a42	0.049631365
137	0x3d02b9db	0.031915527
138	0xbad4493d	-0.0016196143
139	0xbe0b9595	-0.1363128
140	0xbe21826a	-0.15772405
141	0xbdff4941	-0.12465144
142	0xbc55a563	-0.01303992
143	0xbdf1a985	-0.117999114
144	0xbd8f12e8	-0.06986028
145	0xbbdc7d25	-0.0067287856
146	0xbcdbe49c	-0.026842408
147	0xbde07227	-0.10959273
148	0x3d4fe30c	0.05075364
149	0xbd3a3ee6	-0.04547014
150	0xbd950f54	-0.07278314
151	0xbd8e253a	-0.06940694
152	0x3cf2899d	0.029606635
153	0x3d8671df	0.06564688
154	0x3d008bca	0.031383313
155	0xbd868a56	-0.06569354
156	0xbdf92880	-0.12165928
157	0xbd7ca953	-0.061684918
158	0xbcd9d05b	-0.02658861
159	0x3d0c18db	0.03420339
160	0xbde39745	-0.11112837
161	0xbda6c2e0	-0.08142638
162	0xbc72f7c5	-0.014829581
163	0x3dc2ad22	0.09505679
164	0xbbaa74be	-0.005201905
165	0xbd4b54d5	-0.04964145
166	0xbdea65b9	-0.11445183
167	0xbd9c2227	-0.076237015
168	0x3d9ccc2a	0.07656129
169	0xbc69e89a	-0.014276648
170	0xbd6093e3	-0.054828536
171	0xbe11e2de	-0.14246699
172	0x3d33819d	0.04382478
173	0x3d127fa6	0.035766266
174	0x3c6dfb4a	0.014525244
175	0x3cf8a282	0.030350927
176	0xbd895f59	-0.06707639
177	0x3d3a7ad8	0.04552731
178	0xbd471292	-0.048601694
179	0xbe1c3771	-0.15255524
180	0x3dad4b86	0.084616706
181	0x3d57915a	0.052628852
182	0xbdf2f96c	-0.1186398
183	0x3b5dfae6	0.003387147
184	0xbdb67c31	-0.089104064
185	0xbd237514	-0.039906576
186	0x3dbe6959	0.09297437
187	0xbdbede9a	-0.09319802
188	0xbe08761f	-0.1332631
189	0xbdd2aa1b	-0.10286351
190	0xbd042905	-0.03226568
191	0x3cb932cc	0.02260723
192	0x3caf3730	0.02138862
193	0x3c310387	0.010804064
194	0xbe110546	-0.14162168
195	0xbdeb8d21	-0.115015276
196	0xbe326477	-0.17421137
197	0x3da177a2	0.07884146
198	0x3c4308be	0.01190394
199	0xbde19c1a	-0.11016102
200	0xbe19b4a6	-0.15010318
201	0xbd623cbb	-0.0552337
202	0x3c868069	0.016418653
203	0xbd864a68	-0.065571606
204	0x3d848c70	0.06472099
205	0xbcd8f86a	-0.02648564
206	0x3d8179ee	0.06322084
207	0x3c132db9	0.008983069
208	0xbd8fefd9	-0.07028169
209	0xbc281f61	-0.010261388
210	0x3d1c2544	0.038121477
211	0x3d893627	0.06699782
212	0xbd90f51e	-0.070780024
213	0x3de05043	0.10952809
214	0xbdf0085b	-0.11720344
215	0xbd3b8c8b	-0.04578833
216	0x3dabf200	0.08395767
217	0xbda9301d	-0.0826113
218	0x3cd4cced	0.025976622
219	0xbd003eb3	-0.031309795
220	0xbd80928d	-0.06277952
221	0xbb769dbe	-0.0037630643
222	0x3d404ab4	0.046946242
223	0xbd7d1f44	-0.061797395
224	0xbdc69988	-0.096972525
225	0xbae58e5e	-0.0017513742
226	0x3d410c03	0.047130596
227	0x3d802787	0.06257539
228	0xbd184ea5	-0.037184376
229	0xbd7ba9c5	-0.0614412
230	0xbd218df7	-0.03944203
231	0xbe043233	-0.12909774
232	0xbceb025b	-0.028687647
233	0xbe1185e1	-0.14211227
234	0xbd646abf	-0.055765864
235	0x3d3db426	0.04631438
236	0xbd0b7b3d	-0.034053076
237	0xbe026a1c	-0.1273579
238	0x3d389977	0.04506823
239	0xbdaf7912	-0.08568014
240	0xbcbdb559	-0.023157762
241	0xbdd69607	-0.10477834
242	0xbc59f3b2	-0.01330273
243	0xbe253d99	-0.16136779
244	0x3da5f7b6	0.08103888
245	0xbe0d1b19	-0.13779868
246	0xbbbe203f	-0.005802184
247	0xbdaff637	-0.08591884
248	0x3c399fa8	0.011329569
249	0x3c536a04	0.012903694
250	0xbd8d4377	-0.068976335
251	0xbcafdee8	-0.021468595
252	0xbd9ac30d	-0.07556734
253	0xbad431be	-0.0016189141
254	0xbcc49680	-0.023997545
255	0xbdf0afad	-0.117522575

layers.0.linear2.weight f4 [64, 256]
0	0x3d0135ba	0.03154538
1	0xbcf12670	-0.029437274
2	0xbd8f5d56	-0.07000224
3	0xbcf14a96	-0.02945451
4	0x3d571fda	0.05252061
5	0x3d99d97c	0.07512185
6	0xbc3d60be	-0.01155871
7	0x3c568169	0.013092377
8	0xbda862aa	-0.08221944
9	0x3d5db267	0.054125216
10	0xbbc89942	-0.0061217854
11	0xbca23e25	-0.019805023
12	0xbcc4d901	-0.024029257
13	0xbd18e88b	-0.037331145
14	0x3d82dbcd	0.0638958
15	0x3d1c58e1	0.0381707
16	0x3caf57e6	0.021404218
17	0xbdb07da2	-0.086177126
18	0x3be1ddc0	0.0068928897
19	0x3c58aa90	0.013224259
20	0xbd74eb21	-0.05979455
21	0xbcf58704	-0.029971607
22	0xbd6f0ffd	-0.058364857
23	0xbca15c52	-0.019697342
24	0x3b2505ed	0.0025180534
25	0x3bd1780e	0.0063924855
26	0x3d29121d	0.04127704
27	0xbd6a3546	-0.05717971
28	0x3d931211	0.0718118
29	0x3dbd9ef4	0.092588335
30	0x3d24bc5a	0.04021869
31	0x3d005e83	0.031340133
32	0x3d1a8665	0.037725825
33	0x3d32a213	0.043611597
34	0x3d6f24a1	0.05838454
35	0x3d359378	0.04433009
36	0x3acb39c1	0.0015504883
37	0x3b93dfe8	0.0045127757
38	0x3d1c84d0	0.038212597
39	0xbd435f3c	-0.047698244
40	0xbd4f7d6e	-0.05065673
41	0xbd828e90	-0.06374848
42	0xbd2b82d6	-0.04187282
43	0x3cb2d77b	0.021831265
44	0xbc8e613f	-0.017380355
45	0x3ced4c92	0.028967176
46	0xbbf1ccae	-0.007379136
47	0xbcc29ad7	-0.023755474
48	0x3c13a7a5	0.009012138
49	0xbd45d5e8	-0.0482997
50	0xbd94d720	-0.07267594
51	0x3d31c8f7	0.043404546
52	0x3cf47c68	0.029844478
53	0x3c10463c	0.008805808
54	0xbd24eecd	-0.0402668
55	0xbc3bdb3e	-0.011465846
56	0xbdb53086	-0.08847146
57	0x3d413397	0.04716834
58	0xbc6d4d61	-0.014483781
59	0x3c1cfdb1	0.009581969
60	0xbd31f9df	-0.043451186
61	0xba493f40	-0.00076769665
62	0x3d9ce15d	0.07660172
63	0xbcc110c2	-0.023567561
64	0x3d6c2347	0.05765083
65	0x3d661d9f	0.056180593
66	0xbcbe4a15	-0.023228684
67	0xbd2f265a	-0.042761184
68	0x3c796187	0.015221006
69	0x3b1602b7	0.0022889802
70	0x3cf5f68f	0.030024795
71	0x3a06137e	0.0005114599
72	0x3cb56d05	0.022146711
73	0xbd6eb8ef	-0.058281835
74	0x3d5ba31d	0.053622354
75	0xbd211986	-0.03933098
76	0x3dbd9218	0.09256381
77	0x3cbdc229	0.023163872
78	0x3c54e761	0.012994618
79	0xbcb74252	-0.022370491
80	0x3d2d11e3	0.042253386
81	0xbb73be55	-0.0037192304
82	0xbd1129a2	-0.035440095
83	0xbcf727f6	-0.030170422
84	0xbd7f8ca1	-0.062389974
85	0x3cbd5ee6	0.02311654
86	0xbc977b80	-0.018491507
87	0x3e12880c	0.1430971
88	0xbc088c89	-0.008334287
89	0xbde972cf	-0.11398851
90	0x3c7b10e5	0.015323852
91	0xbd3aed40	-0.045636415
92	0xbdab1ddc	-0.083553046
93	0xbc9a5b44	-0.018842347
94	0xbc672a47	-0.014109201
95	0x3c0642af	0.00819461
96	0x3d824339	0.06360478
97	0x3cc3877d	0.023868317
98	0x3d6b59c1	0.057458643
99	0x3dc4a621	0.09601999
100	0x3ca8a1b0	0.020584911
101	0xbccae61e	-0.024767932
102	0xbd0c53a6	-0.03425946
103	0xbcfff180	-0.031243086
104	0xbd1d660f	-0.03842741
105	0x3b9ff886	0.004881921
106	0x3d8728c5	0.06599573
107	0x3c5f6d62	0.013636919
108	0x3d6e3f9e	0.05816614
109	0xbd56d270	-0.052446783
110	0x3d518721	0.05115426
111	0x3cfd4c22	0.030920092
112	0xb9e2d6b2	-0.0004326604
113	0xb9251168	-0.0001574211
114	0xbdc6395b	-0.096789084
115	0x3c4fb9dc	0.01267859
116	0x3d383a52	0.044977494
117	0x3ce57358	0.028009102
118	0xbc35f72d	-0.011106295
119	0xbdce3c71	-0.10070122
120	0xbd309540	-0.043111086
121	0x3c096851	0.008386687
122	0x3cdf635e	0.027269062
123	0x3cb7dd4f	0.022444395
124	0x3d44b282	0.0480218
125	0xbd0c0b4b	-0.034190457
126	0xbd7f01b3	-0.06225748
127	0xbd2fabe3	-0.042888533
128	0x3bf6b418	0.007528793
129	0x3c7ac3f8	0.015305512
130	0xbd14c331	-0.03631896
131	0xbd7236f1	-0.059134427
132	0x3da23d7d	0.07921884
133	0xbdb3e59c	-0.08784029
134	0x3cbacbe7	0.022802306
135	0x3deb66bb	0.11494204
136	0x3c804acd	0.015660668
137	0x3d080ffa	0.03321836
138	0xbd9a0e37	-0.075222425
139	0x3c8545b2	0.016268585
140	0xbc5a2488	-0.013314374
141	0xbda7c094	-0.08191028
142	0xbc079651	-0.008275584
143	0xbc753d9d	-0.014968303
144	0x3bef0151	0.007293858
145	0x3de371a5	0.1110566
146	0x3d311870	0.043236196
147	0x3d05ef38	0.03269884
148	0x3d7e2aaa	0.062052406
149	0xbcdc7d82	-0.026915316
150	0xbd0ccf7c	-0.03437756
151	0x3bb6acc7	0.005574796
152	0x3b150232	0.0022736904
153	0x3bcce51f	0.0062528993
154	0x3cbdc413	0.023164785
155	0x3d796462	0.060886748
156	0xbccebb80	-0.025235891
157	0x3c9ea3cd	0.019365216
158	0xbce3fbba	-0.027829994
159	0x396a2274	0.00022328814
160	0xbcc183db	-0.023622444
161	0x3cf467c8	0.029834643
162	0x3c8b2012	0.016983066
163	0x3cc28a1a	0.023747493
164	0x3d502a86	0.050821804
165	0x3c91ead4	0.01781217
166	0x3d051150	0.032487214
167	0xbda4d25e	-0.08047937
168	0xbd05acbc	-0.032635435
169	0x3bd23b85	0.0064157867
170	0xbd5f34cd	-0.054493714
171	0x37f835fc	2.9589042e-05
172	0xbcccf995	-0.025021354
173	0x3a90d717	0.001105043
174	0x3d4bc2c0	0.049746275
175	0x3d4a4a28	0.049387127
176	0x3d0a24fb	0.033726674
177	0xbd7fdc1d	-0.062465776
178	0x3ceb1c65	0.028700063
179	0xbdd8b879	-0.1058206
180	0xbd528cb6	-0.051403724
181	0xbd24bf14	-0.04022129
182	0xbd6f6c2d	-0.058452774
183	0xbdc1f2ea	-0.0947016
184	0xbca14831	-0.019687744
185	0x3c848cbe	0.016180392
186	0x3cd149cf	0.02554789
187	0x3cff3dc5	0.031157384
188	0x3b2658df	0.002538256
189	0xbc6a656b	-0.0143064065
190	0xbcbc2393	-0.022966182
191	0x3de41184	0.11136153
192	0xbd55364b	-0.05205373
193	0x3c1605a2	0.009156616
194	0xbd3e5475	-0.046467263
195	0xbc32d1c5	-0.010914271
196	0xbd31add2	-0.04337866
197	0x3da53b13	0.08067908
198	0xbd0b4cdb	-0.034008842
199	0xbbdf3177	-0.0068113166
200	0x3b2763ac	0.0025541587
201	0x3cd6c789	0.026218193
202	0xbd3554f0	-0.044270456
203	0xbd583ae2	-0.05279053
204	0x3c43be46	0.01194722
205	0x3ab38191	0.001369523
206	0xbba933a1	-0.0051636253
207	0x3d20f569	0.03929654
208	0x3c396046	0.011314457
209	0x3d8a740a	0.06760414
210	0xbdb8bc65	-0.090203084
211	0x3cfa9050	0.030586392
212	0x3dc504bd	0.096200444
213	0xbd7929eb	-0.06083099
214	0x3ced5486	0.028970968
215	0xbd78d27a	-0.0607476
216	0xbc72c9cd	-0.014818621
217	0xbd00b910	-0.03142649
218	0x3b53983d	0.0032286786
219	0x3cc59834	0.024120428
220	0xb9f20017	-0.00046157904
221	0xbd4949a5	-0.0491425
222	0x3d18be3f	0.037290808
223	0x3dc4db03	0.09612086
224	0x3d40dd8c	0.047086284
225	0x3d951e51	0.07281173
226	0x3dbc0f4b	0.091826044
227	0x3cd025be	0.025408622
228	0xbd84305f	-0.064545386
229	0x3ce766c7	0.02824725
230	0xbd80295b	-0.06257888
231	0xbd51f337	-0.05125734
232	0x3d82e088	0.06390482
233	0xbd067612	-0.032827444
234	0x3bc5a2e6	0.006031382
235	0xbc824ae4	-0.015904851
236	0x3ba8af67	0.0051478627
237	0x3d0bb142	0.034104593
238	0x3ca1e283	0.01976133
239	0x3d769e57	0.0602096
240	0x3d849142	0.06473018
241	0x3cde8108	0.027161136
242	0x3c039035	0.008029987
243	0x3d9b34c2	0.07578422
244	0xbd2eaaef	-0.042643484
245	0x3d0842b6	0.033266746
246	0x3cd35181	0.0257957
247	0x3dba1a78	0.0908708
248	0xbd902c76	-0.0703973
249	0x3d24fde4	0.04028119
250	0xbce8866a	-0.028384406
251	0x3cf72247	0.030167712
252	0xbb4a93b5	-0.0030910794
253	0xbd116c25	-0.035503525
254	0x3c6bfeb3	0.014403987
255	0xbd02e4af	-0.03195637

layers.0.linear2.bias f4 [64]
0	0xbd10c1ce	-0.035341077
1	0x3c9abc20	0.018888533
2	0x3c56cc54	0.013110239
3	0xbd144d5b	-0.036206584
4	0x3caeaff8	0.021324143
5	0xbd00e401	-0.03146744
6	0xba681c28	-0.0008854293
7	0xbcd280ce	-0.025696184
8	0x3d65f0ef	0.056137975
9	0x3c891105	0.016731748
10	0x3d4c9473	0.04994626
11	0x3d08e2f2	0.033419557
12	0x3c74f3c8	0.0149507
13	0xbcd5cf17	-0.026099725
14	0xbb11273e	-0.0022148634
15	0x3b96233b	0.0045818365
16	0xbb108db3	-0.0022057116
17	0xbd2f3f73	-0.04278512
18	0x3cb05caa	0.02152856
19	0xbcff4574	-0.031161048
20	0xbd14a1b4	-0.036287025
21	0xbcbe90b4	-0.02326236
22	0xbd26b3ac	-0.040698692
23	0xbcfb94a5	-0.030710528
24	0x3c72b1d4	0.014812905
25	0xbca079e1	-0.019589366
26	0x3c10b393	0.008831876
27	0x3c6627fa	0.014047617
28	0xbcba5a85	-0.022748241
29	0xbca2601b	-0.019821217
30	0xbcaf821d	-0.021424348
31	0xbc8ca5fa	-0.017168988
32	0x3d372cb9	0.044720385
33	0x3d7828e8	0.060585886
34	0xbd488c46	-0.0489619
35	0xbd66bacf	-0.0563305
36	0xbd84f6e8	-0.06492406
37	0x3c04ab63	0.008097502
38	0x3d5e4b27	0.05427089
39	0x3c9e31b8	0.019310817
40	0x3d52c6ab	0.051458996
41	0xbd298882	-0.04138995
42	0x3d324598	0.0435234
43	0xbbd66e6f	-0.0065439264
44	0xbd4d1fd7	-0.050079193
45	0x3b8a165d	0.0042140917
46	0x3d17c2cf	0.03705102
47	0xbc3022b2	-0.0107504595
48	0xbc7afbd4	-0.01531883
49	0x3d018227	0.031618264
50	0x3d3055d2	0.043050595
51	0x3d3bad32	0.04581947
52	0xbd347f5b	-0.04406677
53	0xbd043ac6	-0.032282613
54	0x3d546c24	0.051860943
55	0x3c946fac	0.018119656
56	0x3d0c761a	0.034292318
57	0xbd179d92	-0.037015505
58	0xbd2e19e6	-0.042505167
59	0x3d687e51	0.05676109
60	0xbd02b7a5	-0.03191342
61	0x3cc80955	0.024418512
62	0x3b471f8b	0.0030383791
63	0xbce13d90	-0.027495176
